…
----+-----------+---------+ [INFO] | Linear | 38 | 38 | [INFO] +--------------+-----------+---------+ [INFO] Pass quantize model elapsed time: 900.74 ms&lt;/code&gt;&lt;/pre&gt;&lt;/div&gt;&lt;p&gt; 比较原始模型的第一层（model.distilbert.transformer.layer[0]）和它的量化版本（inc_model.distilbert.transformer.layer[0]），我们看到Linear确实被DynamicQuantizedLinear取代了，它的量化相等的。&lt;br&gt;&lt;/p&gt;&lt;div class=&#34;highlight js-code-highlight&#34;&gt;&lt;pre class=&#34;highlight plaintext&#34;&gt; &lt;code&gt;# Original model TransformerBlock( (attention): MultiHeadSelfAttention( (dropout): Dropout(p=0.1, inplace=False) (q_lin): Linear(in_features=768, out_features=768, bias=True) (k_lin): Linear(in_features=768, out_features=768, bias=True) (v_lin): Linear(in_features=768, out_features=768, bias=True) (out_lin): Linear(in_features=768, out_features=768, bias=True) ) (sa_layer_norm): LayerNorm((768,), eps=1e-12, elementwise_affine=True) (ffn): FFN( (dropout): Dropout(p=0.1, inplace=False) (lin1): Linear(in_features=768, out_features=3072, bias=True) (lin2): Linear(in_features=3072, out_features=768, bias=True) ) (output_layer_norm): LayerNorm((768,), eps=1e-12, elementwise_affine=True) ) # Quantized model TransformerBlock( (attention): MultiHeadSelfAttention( (dropout): Dropout(p=0.1, inplace=False) (q_lin): DynamicQuantizedLinear(in_features=768, out_features=768, dtype=torch.qint8, qscheme=torch.per_channel_affine) (k_lin): DynamicQuantizedLinear(in_features=768, out_features=768, dtype=torch.qint8, qscheme=torch.per_channel_affine) (v_lin): DynamicQuantizedLinear(in_features=768, out_features=768, dtype=torch.qint8, qscheme=torch.per_channel_affine) (out_lin): DynamicQuantizedLinear(in_features=768, out_features=768, dtype=torch.qint8, qscheme=torch.per_channel_affine) ) (sa_layer_norm): LayerNorm((768,), eps=1e-12, elementwise_affine=True) (ffn): FFN( (dropout): Dropout(p=0.1, inplace=False) (lin1): DynamicQuantizedLinear(in_features=768, out_features=3072, dtype=torch.qint8, qscheme=torch.per_channel_affine) (lin2): DynamicQuantizedLinear(in_features=3072, out_features=768, dtype=torch.qint8, qscheme=torch.per_channel_affine) ) (output_layer_norm): LayerNorm((768,), eps=1e-12, elementwise_affine=True) )&lt;/code&gt;&lt;/pre&gt;&lt;/div&gt;&lt;p&gt; 很好，但这对准确性和预测时间有何影响？&lt;/p&gt;&lt;p&gt; 在每个量化步骤之前和之后，Optimum Intel 都会在当前模型上运行评估函数。 有趣的是，量化模型的准确率现在（0.6906）比原始模型（0.6893）高一点。 事实上，量化可以使模型更健壮，更不容易过拟合，并有助于提高准确性。 同样，我们看到量化模型预测评估集的速度比原始模型快 13%。 几行代码还不错！&lt;/p&gt;&lt;p&gt; 信息类型 | 基线 | 调整 1 个结果 | 最佳曲调结果 | 准确度 | 持续时间（秒）| &lt;i&gt;106.3149 |&lt;/i&gt; &lt;b&gt;106.31
…
A;&lt;/code&gt;&lt;/pre&gt; &lt;/div&gt; &lt;p&gt;Comparing the first layer of the original model (model.distilbert.transformer.layer[0]) and its quantized version (inc_model.distilbert.transformer.layer[0]), we see that Linear has indeed been replaced by DynamicQuantizedLinear, its quantized equivalent.&lt;br&gt;&#xA;&lt;/p&gt; &lt;div class=&#34;highlight js-code-highlight&#34;&gt;&#xA;&lt;pre class=&#34;highlight plaintext&#34;&gt;&lt;code&gt;# Original model&#xA;&#xA;TransformerBlock(&#xA;  (attention): MultiHeadSelfAttention(&#xA;    (dropout): Dropout(p=0.1, inplace=False)&#xA;    (q_lin): Linear(in_features=768, out_features=768, bias=True)&#xA;    (k_lin): Linear(in_features=768, out_features=768, bias=True)&#xA;    (v_lin): Linear(in_features=768, out_features=768, bias=True)&#xA;    (out_lin): Linear(in_features=768, out_features=768, bias=True)&#xA;  )&#xA;  (sa_layer_norm): LayerNorm((768,), eps=1e-12, elementwise_affine=True)&#xA;  (ffn): FFN(&#xA;    (dropout): Dropout(p=0.1, inplace=False)&#xA;    (lin1): Linear(in_features=768, out_features=3072, bias=True)&#xA;    (lin2): Linear(in_features=3072, out_features=768, bias=True)&#xA;  )&#xA;  (output_layer_norm): LayerNorm((768,), eps=1e-12, elementwise_affine=True)&#xA;)&#xA;&#xA;# Quantized model&#xA;&#xA;TransformerBlock(&#xA;  (attention): MultiHeadSelfAttention(&#xA;    (dropout): Dropout(p=0.1, inplace=False)&#xA;    (q_lin): DynamicQuantizedLinear(in_features=768, out_features=768, dtype=torch.qint8, qscheme=torch.per_channel_affine)&#xA;    (k_lin): DynamicQuantizedLinear(in_features=768, out_features=768, dtype=torch.qint8, qscheme=torch.per_channel_affine)&#xA;    (v_lin): DynamicQuantizedLinear(in_features=768, out_features=768, dtype=torch.qint8, qscheme=torch.per_channel_affine)&#xA;    (out_lin): DynamicQuantizedLinear(in_features=768, out_features=768, dtype=torch.qint8, qscheme=torch.per_channel_affine)&#xA;  )&#xA;  (sa_layer_norm): LayerNorm((768,), eps=1e-12, elementwise_affine=True)&#xA;  (ffn): FFN(&#xA;    (dropout): Dropout(p=0.1, inplace=False)&#xA;    (lin1): DynamicQuantizedLinear(in_features=768, out_features=3072, dtype=torch.qint8, qscheme=torch.per_channel_affine)&#xA;    (lin2): DynamicQuantizedLinear(in_features=3072, out_features=768, dtype=torch.qint8, qscheme=torch.per_channel_affine)&#xA;  )&#xA;  (output_layer_norm): LayerNorm((768,), eps=1e-12, elementwise_affine=True)&#xA;)&#xA;&lt;/code&gt;&lt;/pre&gt; &lt;/div&gt; &lt;p&gt;Very well, but how does this impact accuracy and prediction time?&lt;/p&gt; &lt;p&gt;Before and after each quantization step, Optimum Intel runs the evaluation function on the current model. Interestingly, the accuracy of the quantized model is now a bit higher (0.6906) than the original model (0.
…
