…
Network&lt;/span&gt;&lt;span class=&#34;p&#34;&gt;(&lt;/span&gt;&lt;span class=&#34;mi&#34;&gt;10&lt;/span&gt;&lt;span class=&#34;p&#34;&gt;,&lt;/span&gt; &lt;span class=&#34;mi&#34;&gt;4&lt;/span&gt;&lt;span class=&#34;p&#34;&gt;,&lt;/span&gt; &lt;span class=&#34;mi&#34;&gt;5&lt;/span&gt;&lt;span class=&#34;p&#34;&gt;,&lt;/span&gt; &lt;span class=&#34;mi&#34;&gt;1&lt;/span&gt;&lt;span class=&#34;p&#34;&gt;)&lt;/span&gt;&#xA;&lt;span class=&#34;n&#34;&gt;net&lt;/span&gt;&#xA;&lt;/code&gt;&lt;/pre&gt; &lt;/div&gt; &lt;blockquote&gt;&#xA;&lt;p&gt;Network( (model): Sequential( (0): Sequential( (0): Linear(in_features=10, out_features=4, bias=True) (1): BatchNorm1d(4, eps=1e-05, momentum=0.1, affine=True, track_running_stats=True) (2): ReLU() ) (1): Sequential( (0): Linear(in_features=4, out_features=5, bias=True) (1): BatchNorm1d(5, eps=1e-05, momentum=0.1, affine=True, track_running_stats=True) (2): ReLU() ) (2): Sequential( (0): Linear(in_features=5, out_features=1, bias=True) (1): BatchNorm1d(1, eps=1e-05, momentum=0.1, affine=True, track_running_stats=True) (2): ReLU() ) )&lt;/p&gt;&#xA;&lt;p&gt;&#xA;)&lt;/p&gt;&#xA;&lt;/blockquote&gt; &lt;p&gt;We can actually see that we have these repeating blocks. Phew! This saved us from defining these 9 individual layers one by one.&lt;/p&gt; &lt;h3&gt; &lt;a href=&#34;https://dev.to/jamescasia/creating-custom-models-with-pytorch-593b#vgg-network
…
;&gt;self&lt;/span&gt;&lt;span class=&#34;p&#34;&gt;,&lt;/span&gt; &lt;span class=&#34;n&#34;&gt;X&lt;/span&gt;&lt;span class=&#34;p&#34;&gt;):&lt;/span&gt; &lt;span class=&#34;k&#34;&gt;return&lt;/span&gt; &lt;span class=&#34;bp&#34;&gt;self&lt;/span&gt;&lt;span class=&#34;p&#34;&gt;.&lt;/span&gt;&lt;span class=&#34;n&#34;&gt;model&lt;/span&gt;&lt;span class=&#34;p&#34;&gt;(&lt;/span&gt;&lt;span class=&#34;n&#34;&gt;X&lt;/span&gt;&lt;span class=&#34;p&#34;&gt;)&lt;/span&gt;&#xA;&lt;/code&gt;&lt;/pre&gt; &lt;/div&gt; &lt;blockquote&gt;&#xA;&lt;p&gt;VGG( (model): Sequential( (0): Sequential( (0): Conv2d(3, 64, kernel_size=(3, 3), stride=(1, 1), padding=(1, 1)) (1): ReLU(inplace=True) (2): MaxPool2d(kernel_size=(2, 2), stride=2, padding=0, dilation=1, ceil_mode=False) ) (1): Sequential( (0): Conv2d(64, 128, kernel_size=(3, 3), stride=(1, 1), padding=(1, 1)) (1): ReLU(inplace=True) (2): MaxPool2d(kernel_size=(2, 2), stride=2, padding=0, dilation=1, ceil_mode=False) ) (2): Sequential( (0): Conv2d(128, 256, kernel_size=(3, 3), stride=(1, 1), padding=(1, 1)) (1): ReLU(inplace=True) (2): Conv2d(256, 256, kernel_size=(3, 3), stride=(1, 1), padding=(1, 1)) (3): ReLU(inplace=True) (4): MaxPool2d(kernel_size=(2, 2), stride=2, padding=0, dilation=1, ceil_mode=False) ) (3): Sequential( (0): Conv2d(256, 512, kernel_size=(3, 3), stride=(1, 1), padding=(1, 1)) (1): ReLU(inplace=True) (2): Conv2d(512, 512, kernel_size=(3, 3), stride=(1, 1), padding=(1, 1)) (3): ReLU(inplace=True) (4): MaxPool2d(kernel_size=(2, 2), stride=2, padding=0, dilation=1, ceil_mode=False) ) (4): Sequential( (0): Conv2d(512, 512, kernel_size=(3, 3), stride=(1, 1), padding=(1, 1)) (1): ReLU(inplace=True) (2): Conv2d(512, 512, kernel_size=(3, 3), stride=(1, 1), padding=(1, 1)) (3): ReLU(inplace=True) (4): MaxPool2d(kernel_size=(2, 2), stride=2, padding=0, dilation=1, ceil_mode=False) ) (5): AdaptiveAvgPool2d(output_size=(7, 7)) (6): Sequential( (0): Flatten() (1): Linear(in_features=25088, out_features=4096, bias=True) (2): ReLU() (3): Dropout(p=0.5, inplace=False) (4): Linear(in_features=4096, out_features=4096, bias=True) (5): ReLU() (6): Dropout(p=0.5, inplace=False) (7): Linear(in_features=4096, out_features=1000, bias=True) (8): Softmax(dim=None) ) )&lt;/p&gt;&#xA;&lt;p&gt;&#xA;)&lt;/p&gt;&#xA;&lt;/blockquote&gt; &lt;p&gt;We now have recreated the VGG model! How cool is that.&lt;/p&gt; &lt;h2&gt; &lt;a href=&#34;https://dev.to/jamescasia/creating-custom-models-with-pytorch-593b#a-complex-model&#34;&gt; &lt;/a&gt; A Complex Model&#xA;&lt;/h2&gt; &lt;p&gt;What we’ve encou
…
ass=&#34;bp&#34;&gt;self&lt;/span&gt;&lt;span class=&#34;p&#34;&gt;,&lt;/span&gt;&lt;span class=&#34;n&#34;&gt;X&lt;/span&gt;&lt;span class=&#34;p&#34;&gt;):&lt;/span&gt; &lt;span class=&#34;k&#34;&gt;return&lt;/span&gt; &lt;span class=&#34;bp&#34;&gt;self&lt;/span&gt;&lt;span class=&#34;p&#34;&gt;.&lt;/span&gt;&lt;span class=&#34;n&#34;&gt;model&lt;/span&gt;&lt;span class=&#34;p&#34;&gt;(&lt;/span&gt;&lt;span class=&#34;n&#34;&gt;X&lt;/span&gt;&lt;span class=&#34;p&#34;&gt;)&lt;/span&gt;&#xA;&lt;/code&gt;&lt;/pre&gt; &lt;/div&gt; &lt;blockquote&gt;&#xA;&lt;p&gt;ResNet( (model): Sequential( (0): Conv2d(3, 64, kernel_size=(7, 7), stride=(2, 2)) (1): MaxPool2d(kernel_size=(7, 7), stride=(2, 2), padding=0, dilation=1, ceil_mode=False) (2): ResidualBlock( (conv1): Sequential( (0): Conv2d(64, 64, kernel_size=(3, 3), stride=(1, 1), padding=(1, 1)) (1): ReLU() ) (conv2): Conv2d(64, 64, kernel_size=(1, 1), stride=(1, 1)) (act): ReLU() ) (3): ResidualBlock( (conv1): Sequential( (0): Conv2d(64, 64, kernel_size=(3, 3), stride=(1, 1), padding=(1, 1)) (1): ReLU() ) (conv2): Conv2d(64, 64, kernel_size=(1, 1), stride=(1, 1)) (act): ReLU() ) (4): ResidualBlock( (conv1): Sequential( (0): Conv2d(64, 64, kernel_size=(3, 3), stride=(1, 1), padding=(1, 1)) (1): ReLU() ) (conv2): Conv2d(64, 64, kernel_size=(1, 1), stride=(1, 1)) (act): ReLU() ) (5): ResidualBlock( (conv1): Sequential( (0): Conv2d(64, 64, kernel_size=(3, 3), stride=(1, 1), padding=(1, 1)) (1): ReLU() ) (conv2): Conv2d(64, 64, kernel_size=(1, 1), stride=(1, 1)) (act): ReLU() ) (6): ResidualBlock( (conv1): Sequential( (0): Conv2d(64, 64, kernel_size=(3, 3), stride=(1, 1), padding=(1, 1)) (1): ReLU() ) (conv2): Conv2d(64, 64, kernel_size=(1, 1), stride=(1, 1)) (act): ReLU() ) (7): ResidualBlock( (conv1): Sequential( (0): Conv2d(64, 64, kernel_size=(3, 3), stride=(1, 1), padding=(1, 1)) (1): ReLU() ) (conv2): Conv2d(64, 64, kernel_size=(1, 1), stride=(1, 1)) (act): ReLU() ) (8): AdaptiveAvgPool2d(output_size=(7, 7)) (9): Sequential( (0): Flatten() (1): Linear(in_features=3136, out_features=4096, bias=True) (2): ReLU() (3): Dropout(p=0.5, inplace=False) (4): Linear(in_features=4096, out_features=4096, bias=True) (5): ReLU() (6): Dropout(p=0.5, inplace=False) (7): Linear(in_features=4096, out_features=1000, bias=True) (8): Softmax(dim=None) ) )&lt;/p&gt;&#xA;&lt;p&gt;&#xA;)&lt;/p&gt;&#xA;&lt;/blockquote&gt; &lt;h2&gt; &lt;a href=&#34;https://dev.to/jamescasia/creating-custom-models-with-pytorch-593b#a-slightly-more-complex-model&#34;&gt; &lt;/a&gt; A Slightly More Complex Model&#xA;&lt;/h2&gt; &lt;p&gt;Recurrent Neural Networks are neural networks that perform bet
…
s=&#34;p&#34;&gt;,&lt;/span&gt; &lt;span class=&#34;n&#34;&gt;output_dim&lt;/span&gt; &lt;span class=&#34;o&#34;&gt;=&lt;/span&gt; &lt;span class=&#34;mi&#34;&gt;1&lt;/span&gt;&lt;span class=&#34;p&#34;&gt;,&lt;/span&gt; &lt;span class=&#34;n&#34;&gt;unit_output_dim&lt;/span&gt; &lt;span class=&#34;o&#34;&gt;=&lt;/span&gt; &lt;span class=&#34;mi&#34;&gt;1&lt;/span&gt;&lt;span class=&#34;p&#34;&gt;)&lt;/span&gt; &lt;span class=&#34;p&#34;&gt;)&lt;/span&gt;&#xA;&lt;/code&gt;&lt;/pre&gt; &lt;/div&gt; &lt;blockquote&gt;&#xA;&lt;p&gt;Sequential( (0): RNN( (models): ModuleList( (0): RNNCell( (linear): Linear(in_features=22, out_features=10, bias=True) (activation): ReLU() (linear_y): Linear(in_features=10, out_features=12, bias=True) (activation_y): ReLU() ) (1): RNNCell( (linear): Linear(in_features=22, out_features=10, bias=True) (activation): ReLU() (linear_y): Linear(in_features=10, out_features=12, bias=True) (activation_y): ReLU() ) (2): RNNCell( (linear): Linear(in_features=22, out_features=10, bias=True) (activation): ReLU() (linear_y): Linear(in_features=10, out_features=12, bias=True) (activation_y): ReLU() ) (3): RNNCell( (linear): Linear(in_features=22, out_features=10, bias=True) (activation): ReLU() (linear_y): Linear(in_features=10, out_features=12, bias=True) (activation_y): ReLU() ) (4): RNNCell( (linear): Linear(in_features=22, out_features=10, bias=True) (activation): ReLU() (linear_y): Linear(in_features=10, out_features=12, bias=True) (activation_y): ReLU() ) ) ) (1): RNN( (models): ModuleList( (0): RNNCell( (linear): Linear(in_features=19, out_features=7, bias=True) (activation): ReLU() (linear_y): Linear(in_features=7, out_features=12, bias=True) (activation_y): ReLU() ) (1): RNNCell( (linear): Linear(in_features=19, out_features=7, bias=True) (activation): ReLU() (linear_y): Linear(in_features=7, out_features=12, bias=True) (activation_y): ReLU() ) (2): RNNCell( (linear): Linear(in_features=19, out_features=7, bias=True) (activation): ReLU() (linear_y): Linear(in_features=7, out_features=12, bias=True) (activation_y): ReLU() ) (3): RNNCell( (linear): Linear(in_features=19, out_features=7, bias=True) (activation): ReLU() (linear_y): Linear(in_features=7, out_features=12, bias=True) (activation_y): ReLU() ) ) ) (2): RNN( (models): ModuleList( (0): RNNCell( (linear): Linear(in_features=15, out_features=3, bias=True) (activation): ReLU() (linear_y): Linear(in_features=3, out_features=1, bias=True) (activation_y): ReLU() ) (1): RNNCell( (linear): Linear(in_features=15, out_features=3, bias=True) (activation): ReLU() (linear_y): Linear(in_features=3, out_features=1, bias=True) (activation_y): ReLU() ) ) )&lt;/p&gt;&#xA;&lt;p&gt;&#xA;)&lt;/p&gt;&#xA;&lt;/blockquote&gt; &lt;p&gt;That&#39;s it for now! We could go on here with all the different types of RNNs but this post is getting too long already. I could continue with the more complicated models if this post gains enough traction so make sure to share with your friends!&lt;br&g
…
