…
      "Description": "需求是 12 代 u+3060 ，希望价格能到八千或以内\u003cbr /\u003e\u003cbr /\u003e拯救者 y9000p 这价格太离谱了属实是\u003cbr /\u003e\u003cbr /\u003e高考完没有立刻买，错过 618 又没货又高价当大怨种是吧\u003cbr /\u003e\u003cbr /\u003e\u003cbr /\u003e\u003cbr /\u003e如果节点不对麻烦管理员移一下了，麻烦啦",
      "Author": "hongjr03",
      "PubDate": "2022-06-29T16:49:32Z"
    },
    {
      "Title": "Bert 神经网络结构中是否使用了多头自注意力机制？ - 问与答",
      "Link": "https://www.v2ex.com/t/863065",
      "Description": "\u003cp\u003e学习完 RNN 之后学习效果更好的 bert ，从网上 trasformers 的预训练库里加载了一个 bert 的模型，但是将其打印出来的结构类似下面这样：\u003c/p\u003e\n\u003cpre\u003e\u003ccode class=\"language-python\"\u003eBertForSequenceClassification(\n  (bert): BertModel(\n    (embeddings): BertEmbeddings(\n      (word_embeddings): Embedding(21128, 768, padding_idx=0)\n      (position_embeddings): Embedding(512, 768)\n      (token_type_embeddings): Embedding(2, 768)\n      (LayerNorm): LayerNorm((768,), eps=1e-12, elementwise_affine=True)\n      (dropout): Dropout(p=0.1, inplace=False)\n    )\n    (encoder): BertEncoder(\n      (layer): ModuleList(\n        (0): BertLayer(\n          (attention): BertAttention(\n            (self): BertSelfAttention(\n              (query): Linear(in_features=768, out_features=768, bias=True)\n              (key): Linear(in_features=768, out_features=768, bias=True)\n              (value): Linear(in_features=768, out_features=768, bias=True)\n              (dropout): Dropout(p=0.1, inplace=False)\n            )\n            (output): BertSelfOutput(\n              (dense): Linear(in_features=768, out_features=768, bias=True)\n              (LayerNorm): LayerNorm((768,), eps=1e-12, elementwise_affine=True)\n              (dropout): Dropout(p=0.1, inplace=False)\n            )\n          )\n          (intermediate): BertIntermediate(\n            (dense): Linear(in_features=768, out_features=3072, bias=True)\n            (intermediate_act_fn): GELUActivation()\n          )\n          (output): BertOutput(\n            (dense): Linear(in_features=3072, out_features=768, bias=True)\n            (LayerNorm): LayerNorm((768,), eps=1e-12, elementwise_affine=True)\n            (dropout): Dropout(p=0.1, inplace=False)\n          )\n        )\n        (1): BertLayer(...)\n        (2): BertLayer(...)\n        (3): BertLayer(...)\n        (4): BertLayer(...)\n        (5): BertLayer(...)\n        (6): BertLayer(...)\n        (7): BertLayer(...)\n        (8): BertLayer(...)\n        (9): BertLayer(...)\n        (10): BertLayer(...)\n        (11): BertLayer(...)\n      )\n    )\n    (pooler): BertPooler(\n      (dense): Linear(in_features=768, out_features=768, bias=True)\n      (activation): Tanh()\n    )\n  )\n  (dropout): Dropout(p=0.1, inplace=False)\n  (classifier): Linear(in_features=768, out_features=14, bias=True)\n)\n\u003c/code\u003e\u003c/pre\u003e\n\u003cp\u003e可以观察到它的实现里 embedding 完成之后是十二个 bertlayer ，而每个 bertlayer 的内容，输入长度是 768 ，分别生成长度为 768 的三个 kqv ，那么这应该是一个完整的自注意力要素，multihead 的成分在哪里呢？\u003c/p\u003e\n\u003cp\u003e还是说我理解错了，它打印出来这个结果意思是 embedding 完事之后有 12 个平行的 self-attention 并行计算，而不是顺序结算？\u003c/p\u003e\n\u003cp\u003e看到网上资料里都写 bert 是有 multihead selfattention 的\u003c/p\u003e\n",
…
