…
--+ [INFO] | Linear | 38 | 38 | [INFO] +--------------+-----------+---------+ [INFO] Pass quantize model elapsed time: 900.74 ms\u003c/code\u003e\u003c/pre\u003e\u003c/div\u003e\u003cp\u003e 比较原始模型的第一层（model.distilbert.transformer.layer[0]）和它的量化版本（inc_model.distilbert.transformer.layer[0]），我们看到Linear确实被DynamicQuantizedLinear取代了，它的量化相等的。\u003cbr\u003e\u003c/p\u003e\u003cdiv class=\"highlight js-code-highlight\"\u003e\u003cpre class=\"highlight plaintext\"\u003e \u003ccode\u003e# Original model TransformerBlock( (attention): MultiHeadSelfAttention( (dropout): Dropout(p=0.1, inplace=False) (q_lin): Linear(in_features=768, out_features=768, bias=True) (k_lin): Linear(in_features=768, out_features=768, bias=True) (v_lin): Linear(in_features=768, out_features=768, bias=True) (out_lin): Linear(in_features=768, out_features=768, bias=True) ) (sa_layer_norm): LayerNorm((768,), eps=1e-12, elementwise_affine=True) (ffn): FFN( (dropout): Dropout(p=0.1, inplace=False) (lin1): Linear(in_features=768, out_features=3072, bias=True) (lin2): Linear(in_features=3072, out_features=768, bias=True) ) (output_layer_norm): LayerNorm((768,), eps=1e-12, elementwise_affine=True) ) # Quantized model TransformerBlock( (attention): MultiHeadSelfAttention( (dropout): Dropout(p=0.1, inplace=False) (q_lin): DynamicQuantizedLinear(in_features=768, out_features=768, dtype=torch.qint8, qscheme=torch.per_channel_affine) (k_lin): DynamicQuantizedLinear(in_features=768, out_features=768, dtype=torch.qint8, qscheme=torch.per_channel_affine) (v_lin): DynamicQuantizedLinear(in_features=768, out_features=768, dtype=torch.qint8, qscheme=torch.per_channel_affine) (out_lin): DynamicQuantizedLinear(in_features=768, out_features=768, dtype=torch.qint8, qscheme=torch.per_channel_affine) ) (sa_layer_norm): LayerNorm((768,), eps=1e-12, elementwise_affine=True) (ffn): FFN( (dropout): Dropout(p=0.1, inplace=False) (lin1): DynamicQuantizedLinear(in_features=768, out_features=3072, dtype=torch.qint8, qscheme=torch.per_channel_affine) (lin2): DynamicQuantizedLinear(in_features=3072, out_features=768, dtype=torch.qint8, qscheme=torch.per_channel_affine) ) (output_layer_norm): LayerNorm((768,), eps=1e-12, elementwise_affine=True) )\u003c/code\u003e\u003c/pre\u003e\u003c/div\u003e\u003cp\u003e 很好，但这对准确性和预测时间有何影响？\u003c/p\u003e\u003cp\u003e 在每个量化步骤之前和之后，Optimum Intel 都会在当前模型上运行评估函数。 有趣的是，量化模型的准确率现在（0.6906）比原始模型（0.6893）高一点。 事实上，量化可以使模型更健壮，更不容易过拟合，并有助于提高准确性。 同样，我们看到量化模型预测评估集的速度比原始模型快 13%。 几行代码还不错！\u003c/p\u003e\u003cp\u003e 信息类型 | 基线 | 调整 1 个结果 | 最佳曲调结果 | 准确度 | 持续时间（秒）| \u003ci\u003e
…
u003c/code\u003e\u003c/pre\u003e \u003c/div\u003e \u003cp\u003eComparing the first layer of the original model (model.distilbert.transformer.layer[0]) and its quantized version (inc_model.distilbert.transformer.layer[0]), we see that Linear has indeed been replaced by DynamicQuantizedLinear, its quantized equivalent.\u003cbr\u003e\n\u003c/p\u003e \u003cdiv class=\"highlight js-code-highlight\"\u003e\n\u003cpre class=\"highlight plaintext\"\u003e\u003ccode\u003e# Original model\n\nTransformerBlock(\n  (attention): MultiHeadSelfAttention(\n    (dropout): Dropout(p=0.1, inplace=False)\n    (q_lin): Linear(in_features=768, out_features=768, bias=True)\n    (k_lin): Linear(in_features=768, out_features=768, bias=True)\n    (v_lin): Linear(in_features=768, out_features=768, bias=True)\n    (out_lin): Linear(in_features=768, out_features=768, bias=True)\n  )\n  (sa_layer_norm): LayerNorm((768,), eps=1e-12, elementwise_affine=True)\n  (ffn): FFN(\n    (dropout): Dropout(p=0.1, inplace=False)\n    (lin1): Linear(in_features=768, out_features=3072, bias=True)\n    (lin2): Linear(in_features=3072, out_features=768, bias=True)\n  )\n  (output_layer_norm): LayerNorm((768,), eps=1e-12, elementwise_affine=True)\n)\n\n# Quantized model\n\nTransformerBlock(\n  (attention): MultiHeadSelfAttention(\n    (dropout): Dropout(p=0.1, inplace=False)\n    (q_lin): DynamicQuantizedLinear(in_features=768, out_features=768, dtype=torch.qint8, qscheme=torch.per_channel_affine)\n    (k_lin): DynamicQuantizedLinear(in_features=768, out_features=768, dtype=torch.qint8, qscheme=torch.per_channel_affine)\n    (v_lin): DynamicQuantizedLinear(in_features=768, out_features=768, dtype=torch.qint8, qscheme=torch.per_channel_affine)\n    (out_lin): DynamicQuantizedLinear(in_features=768, out_features=768, dtype=torch.qint8, qscheme=torch.per_channel_affine)\n  )\n  (sa_layer_norm): LayerNorm((768,), eps=1e-12, elementwise_affine=True)\n  (ffn): FFN(\n    (dropout): Dropout(p=0.1, inplace=False)\n    (lin1): DynamicQuantizedLinear(in_features=768, out_features=3072, dtype=torch.qint8, qscheme=torch.per_channel_affine)\n    (lin2): DynamicQuantizedLinear(in_features=3072, out_features=768, dtype=torch.qint8, qscheme=torch.per_channel_affine)\n  )\n  (output_layer_norm): LayerNorm((768,), eps=1e-12, elementwise_affine=True)\n)\n\u003c/code\u003e\u003c/pre\u003e \u003c/div\u003e \u003cp\u003eVery well, but how does this impact accuracy and prediction time?\u003c/p\u003e \u003cp\u003eBefore and after each quantization step, Optimum Intel runs the evaluation function on the current model. Interestingly, the accuracy of the quantized model is now a bit higher (0.6906) than the 
…
