…
class=\"p\"\u003e(\u003c/span\u003e\u003cspan class=\"mi\"\u003e10\u003c/span\u003e\u003cspan class=\"p\"\u003e,\u003c/span\u003e \u003cspan class=\"mi\"\u003e4\u003c/span\u003e\u003cspan class=\"p\"\u003e,\u003c/span\u003e \u003cspan class=\"mi\"\u003e5\u003c/span\u003e\u003cspan class=\"p\"\u003e,\u003c/span\u003e \u003cspan class=\"mi\"\u003e1\u003c/span\u003e\u003cspan class=\"p\"\u003e)\u003c/span\u003e\n\u003cspan class=\"n\"\u003enet\u003c/span\u003e\n\u003c/code\u003e\u003c/pre\u003e \u003c/div\u003e \u003cblockquote\u003e\n\u003cp\u003eNetwork( (model): Sequential( (0): Sequential( (0): Linear(in_features=10, out_features=4, bias=True) (1): BatchNorm1d(4, eps=1e-05, momentum=0.1, affine=True, track_running_stats=True) (2): ReLU() ) (1): Sequential( (0): Linear(in_features=4, out_features=5, bias=True) (1): BatchNorm1d(5, eps=1e-05, momentum=0.1, affine=True, track_running_stats=True) (2): ReLU() ) (2): Sequential( (0): Linear(in_features=5, out_features=1, bias=True) (1): BatchNorm1d(1, eps=1e-05, momentum=0.1, affine=True, track_running_stats=True) (2): ReLU() ) )\u003c/p\u003e\n\u003cp\u003e\n)\u003c/p\u003e\n\u003c/blockquote\u003e \u003cp\u003eWe can actually see that we have these repeating blocks. Phew! This saved us from defining these 9 individual layers one by one.\u003c/p\u003e \u003ch3\u003e \u003ca href=\"https://dev.to/jamescasia/creating-custom-models-with-pytorc
…
lass=\"p\"\u003e,\u003c/span\u003e \u003cspan class=\"n\"\u003eX\u003c/span\u003e\u003cspan class=\"p\"\u003e):\u003c/span\u003e \u003cspan class=\"k\"\u003ereturn\u003c/span\u003e \u003cspan class=\"bp\"\u003eself\u003c/span\u003e\u003cspan class=\"p\"\u003e.\u003c/span\u003e\u003cspan class=\"n\"\u003emodel\u003c/span\u003e\u003cspan class=\"p\"\u003e(\u003c/span\u003e\u003cspan class=\"n\"\u003eX\u003c/span\u003e\u003cspan class=\"p\"\u003e)\u003c/span\u003e\n\u003c/code\u003e\u003c/pre\u003e \u003c/div\u003e \u003cblockquote\u003e\n\u003cp\u003eVGG( (model): Sequential( (0): Sequential( (0): Conv2d(3, 64, kernel_size=(3, 3), stride=(1, 1), padding=(1, 1)) (1): ReLU(inplace=True) (2): MaxPool2d(kernel_size=(2, 2), stride=2, padding=0, dilation=1, ceil_mode=False) ) (1): Sequential( (0): Conv2d(64, 128, kernel_size=(3, 3), stride=(1, 1), padding=(1, 1)) (1): ReLU(inplace=True) (2): MaxPool2d(kernel_size=(2, 2), stride=2, padding=0, dilation=1, ceil_mode=False) ) (2): Sequential( (0): Conv2d(128, 256, kernel_size=(3, 3), stride=(1, 1), padding=(1, 1)) (1): ReLU(inplace=True) (2): Conv2d(256, 256, kernel_size=(3, 3), stride=(1, 1), padding=(1, 1)) (3): ReLU(inplace=True) (4): MaxPool2d(kernel_size=(2, 2), stride=2, padding=0, dilation=1, ceil_mode=False) ) (3): Sequential( (0): Conv2d(256, 512, kernel_size=(3, 3), stride=(1, 1), padding=(1, 1)) (1): ReLU(inplace=True) (2): Conv2d(512, 512, kernel_size=(3, 3), stride=(1, 1), padding=(1, 1)) (3): ReLU(inplace=True) (4): MaxPool2d(kernel_size=(2, 2), stride=2, padding=0, dilation=1, ceil_mode=False) ) (4): Sequential( (0): Conv2d(512, 512, kernel_size=(3, 3), stride=(1, 1), padding=(1, 1)) (1): ReLU(inplace=True) (2): Conv2d(512, 512, kernel_size=(3, 3), stride=(1, 1), padding=(1, 1)) (3): ReLU(inplace=True) (4): MaxPool2d(kernel_size=(2, 2), stride=2, padding=0, dilation=1, ceil_mode=False) ) (5): AdaptiveAvgPool2d(output_size=(7, 7)) (6): Sequential( (0): Flatten() (1): Linear(in_features=25088, out_features=4096, bias=True) (2): ReLU() (3): Dropout(p=0.5, inplace=False) (4): Linear(in_features=4096, out_features=4096, bias=True) (5): ReLU() (6): Dropout(p=0.5, inplace=False) (7): Linear(in_features=4096, out_features=1000, bias=True) (8): Softmax(dim=None) ) )\u003c/p\u003e\n\u003cp\u003e\n)\u003c/p\u003e\n\u003c/blockquote\u003e \u003cp\u003eWe now have recreated the VGG model! How cool is that.\u003c/p\u003e \u003ch2\u003e \u003ca href=\"https://dev.to/jamescasia/creating-custom-models-with-pytorch-593b#a-complex-model\"\u003e \u003c/a\u003e A Complex Model\n\u003c/h2\u003e \u0
…
03e\u003cspan class=\"p\"\u003e,\u003c/span\u003e\u003cspan class=\"n\"\u003eX\u003c/span\u003e\u003cspan class=\"p\"\u003e):\u003c/span\u003e \u003cspan class=\"k\"\u003ereturn\u003c/span\u003e \u003cspan class=\"bp\"\u003eself\u003c/span\u003e\u003cspan class=\"p\"\u003e.\u003c/span\u003e\u003cspan class=\"n\"\u003emodel\u003c/span\u003e\u003cspan class=\"p\"\u003e(\u003c/span\u003e\u003cspan class=\"n\"\u003eX\u003c/span\u003e\u003cspan class=\"p\"\u003e)\u003c/span\u003e\n\u003c/code\u003e\u003c/pre\u003e \u003c/div\u003e \u003cblockquote\u003e\n\u003cp\u003eResNet( (model): Sequential( (0): Conv2d(3, 64, kernel_size=(7, 7), stride=(2, 2)) (1): MaxPool2d(kernel_size=(7, 7), stride=(2, 2), padding=0, dilation=1, ceil_mode=False) (2): ResidualBlock( (conv1): Sequential( (0): Conv2d(64, 64, kernel_size=(3, 3), stride=(1, 1), padding=(1, 1)) (1): ReLU() ) (conv2): Conv2d(64, 64, kernel_size=(1, 1), stride=(1, 1)) (act): ReLU() ) (3): ResidualBlock( (conv1): Sequential( (0): Conv2d(64, 64, kernel_size=(3, 3), stride=(1, 1), padding=(1, 1)) (1): ReLU() ) (conv2): Conv2d(64, 64, kernel_size=(1, 1), stride=(1, 1)) (act): ReLU() ) (4): ResidualBlock( (conv1): Sequential( (0): Conv2d(64, 64, kernel_size=(3, 3), stride=(1, 1), padding=(1, 1)) (1): ReLU() ) (conv2): Conv2d(64, 64, kernel_size=(1, 1), stride=(1, 1)) (act): ReLU() ) (5): ResidualBlock( (conv1): Sequential( (0): Conv2d(64, 64, kernel_size=(3, 3), stride=(1, 1), padding=(1, 1)) (1): ReLU() ) (conv2): Conv2d(64, 64, kernel_size=(1, 1), stride=(1, 1)) (act): ReLU() ) (6): ResidualBlock( (conv1): Sequential( (0): Conv2d(64, 64, kernel_size=(3, 3), stride=(1, 1), padding=(1, 1)) (1): ReLU() ) (conv2): Conv2d(64, 64, kernel_size=(1, 1), stride=(1, 1)) (act): ReLU() ) (7): ResidualBlock( (conv1): Sequential( (0): Conv2d(64, 64, kernel_size=(3, 3), stride=(1, 1), padding=(1, 1)) (1): ReLU() ) (conv2): Conv2d(64, 64, kernel_size=(1, 1), stride=(1, 1)) (act): ReLU() ) (8): AdaptiveAvgPool2d(output_size=(7, 7)) (9): Sequential( (0): Flatten() (1): Linear(in_features=3136, out_features=4096, bias=True) (2): ReLU() (3): Dropout(p=0.5, inplace=False) (4): Linear(in_features=4096, out_features=4096, bias=True) (5): ReLU() (6): Dropout(p=0.5, inplace=False) (7): Linear(in_features=4096, out_features=1000, bias=True) (8): Softmax(dim=None) ) )\u003c/p\u003e\n\u003cp\u003e\n)\u003c/p\u003e\n\u003c/blockquote\u003e \u003ch2\u003e \u003ca href=\"https://dev.to/jamescasia/creating-custom-models-with-pytorch-593b#a-slightly-more-complex-model\"\u003e \u003c/a\u003e A Slightly More Complex Model\n\u003c/h2\u003e \u003cp\u003eRecurrent Neural Networks are neural network
…
\u003cspan class=\"n\"\u003eoutput_dim\u003c/span\u003e \u003cspan class=\"o\"\u003e=\u003c/span\u003e \u003cspan class=\"mi\"\u003e1\u003c/span\u003e\u003cspan class=\"p\"\u003e,\u003c/span\u003e \u003cspan class=\"n\"\u003eunit_output_dim\u003c/span\u003e \u003cspan class=\"o\"\u003e=\u003c/span\u003e \u003cspan class=\"mi\"\u003e1\u003c/span\u003e\u003cspan class=\"p\"\u003e)\u003c/span\u003e \u003cspan class=\"p\"\u003e)\u003c/span\u003e\n\u003c/code\u003e\u003c/pre\u003e \u003c/div\u003e \u003cblockquote\u003e\n\u003cp\u003eSequential( (0): RNN( (models): ModuleList( (0): RNNCell( (linear): Linear(in_features=22, out_features=10, bias=True) (activation): ReLU() (linear_y): Linear(in_features=10, out_features=12, bias=True) (activation_y): ReLU() ) (1): RNNCell( (linear): Linear(in_features=22, out_features=10, bias=True) (activation): ReLU() (linear_y): Linear(in_features=10, out_features=12, bias=True) (activation_y): ReLU() ) (2): RNNCell( (linear): Linear(in_features=22, out_features=10, bias=True) (activation): ReLU() (linear_y): Linear(in_features=10, out_features=12, bias=True) (activation_y): ReLU() ) (3): RNNCell( (linear): Linear(in_features=22, out_features=10, bias=True) (activation): ReLU() (linear_y): Linear(in_features=10, out_features=12, bias=True) (activation_y): ReLU() ) (4): RNNCell( (linear): Linear(in_features=22, out_features=10, bias=True) (activation): ReLU() (linear_y): Linear(in_features=10, out_features=12, bias=True) (activation_y): ReLU() ) ) ) (1): RNN( (models): ModuleList( (0): RNNCell( (linear): Linear(in_features=19, out_features=7, bias=True) (activation): ReLU() (linear_y): Linear(in_features=7, out_features=12, bias=True) (activation_y): ReLU() ) (1): RNNCell( (linear): Linear(in_features=19, out_features=7, bias=True) (activation): ReLU() (linear_y): Linear(in_features=7, out_features=12, bias=True) (activation_y): ReLU() ) (2): RNNCell( (linear): Linear(in_features=19, out_features=7, bias=True) (activation): ReLU() (linear_y): Linear(in_features=7, out_features=12, bias=True) (activation_y): ReLU() ) (3): RNNCell( (linear): Linear(in_features=19, out_features=7, bias=True) (activation): ReLU() (linear_y): Linear(in_features=7, out_features=12, bias=True) (activation_y): ReLU() ) ) ) (2): RNN( (models): ModuleList( (0): RNNCell( (linear): Linear(in_features=15, out_features=3, bias=True) (activation): ReLU() (linear_y): Linear(in_features=3, out_features=1, bias=True) (activation_y): ReLU() ) (1): RNNCell( (linear): Linear(in_features=15, out_features=3, bias=True) (activation): ReLU() (linear_y): Linear(in_features=3, out_features=1, bias=True) (activation_y): ReLU() ) ) )\u003c/p\u003e\n\u003cp\u003e\n)\u003c/p\u003e\n\u003c/blockquote\u003e \u003cp\u003eThat's it for now! We could go on here with all the different types of RNNs but this post is getting too long already. I could continue with the more complicated models if this post gains enough traction so make sure to share with your friends!\
…
