…
      <description>需求是 12 代 u+3060 ，希望价格能到八千或以内&lt;br /&gt;&lt;br /&gt;拯救者 y9000p 这价格太离谱了属实是&lt;br /&gt;&lt;br /&gt;高考完没有立刻买，错过 618 又没货又高价当大怨种是吧&lt;br /&gt;&lt;br /&gt;&lt;br /&gt;&lt;br /&gt;如果节点不对麻烦管理员移一下了，麻烦啦</description>
      <author>hongjr03</author>
      <pubDate>29 Jun 2022 16:49:32 +0000</pubDate>
    </item>
    <item>
      <title>Bert 神经网络结构中是否使用了多头自注意力机制？ - 问与答</title>
      <link>https://www.v2ex.com/t/863065</link>
      <description>&lt;p&gt;学习完 RNN 之后学习效果更好的 bert ，从网上 trasformers 的预训练库里加载了一个 bert 的模型，但是将其打印出来的结构类似下面这样：&lt;/p&gt;&#xA;&lt;pre&gt;&lt;code class=&#34;language-python&#34;&gt;BertForSequenceClassification(&#xA;  (bert): BertModel(&#xA;    (embeddings): BertEmbeddings(&#xA;      (word_embeddings): Embedding(21128, 768, padding_idx=0)&#xA;      (position_embeddings): Embedding(512, 768)&#xA;      (token_type_embeddings): Embedding(2, 768)&#xA;      (LayerNorm): LayerNorm((768,), eps=1e-12, elementwise_affine=True)&#xA;      (dropout): Dropout(p=0.1, inplace=False)&#xA;    )&#xA;    (encoder): BertEncoder(&#xA;      (layer): ModuleList(&#xA;        (0): BertLayer(&#xA;          (attention): BertAttention(&#xA;            (self): BertSelfAttention(&#xA;              (query): Linear(in_features=768, out_features=768, bias=True)&#xA;              (key): Linear(in_features=768, out_features=768, bias=True)&#xA;              (value): Linear(in_features=768, out_features=768, bias=True)&#xA;              (dropout): Dropout(p=0.1, inplace=False)&#xA;            )&#xA;            (output): BertSelfOutput(&#xA;              (dense): Linear(in_features=768, out_features=768, bias=True)&#xA;              (LayerNorm): LayerNorm((768,), eps=1e-12, elementwise_affine=True)&#xA;              (dropout): Dropout(p=0.1, inplace=False)&#xA;            )&#xA;          )&#xA;          (intermediate): BertIntermediate(&#xA;            (dense): Linear(in_features=768, out_features=3072, bias=True)&#xA;            (intermediate_act_fn): GELUActivation()&#xA;          )&#xA;          (output): BertOutput(&#xA;            (dense): Linear(in_features=3072, out_features=768, bias=True)&#xA;            (LayerNorm): LayerNorm((768,), eps=1e-12, elementwise_affine=True)&#xA;            (dropout): Dropout(p=0.1, inplace=False)&#xA;          )&#xA;        )&#xA;        (1): BertLayer(...)&#xA;        (2): BertLayer(...)&#xA;        (3): BertLayer(...)&#xA;        (4): BertLayer(...)&#xA;        (5): BertLayer(...)&#xA;        (6): BertLayer(...)&#xA;        (7): BertLayer(...)&#xA;        (8): BertLayer(...)&#xA;        (9): BertLayer(...)&#xA;        (10): BertLayer(...)&#xA;        (11): BertLayer(...)&#xA;      )&#xA;    )&#xA;    (pooler): BertPooler(&#xA;      (dense): Linear(in_features=768, out_features=768, bias=True)&#xA;      (activation): Tanh()&#xA;    )&#xA;  )&#xA;  (dropout): Dropout(p=0.1, inplace=False)&#xA;  (classifier): Linear(in_features=768, out_features=14, bias=True)&#xA;)&#xA;&lt;/code&gt;&lt;/pre&gt;&#xA;&lt;p&gt;可以观察到它的实现里 embedding 完成之后是十二个 bertlayer ，而每个 bertlayer 的内容，输入长度是 768 ，分别生成长度为 768 的三个 kqv ，那么这应该是一个完整的自注意力要素，multihead 的成分在哪里呢？&lt;/p&gt;&#xA;&lt;p&gt;还是说我理解错了，它打印出来这个结果意思是 embedding 完事之后有 12 个平行的 self-attention 并行计算，而不是顺序结算？&lt;/p&gt;&#xA;&lt;p&gt;看到网上资料里都写 bert 是有 multihead selfattention 的&lt;/p&gt;&#xA;</description>
…
